cvae.pth (torch, 833782 bytes, 14 tensors)

encoder.label_embedding.weight f4 [16, 10]
-0.028254401 -0.07826763 -0.2197817 -0.23975046 -0.23907462 -0.21597502 -0.21566266 -0.23027928
0.906718 1.1047684 -0.57606584 0.8527462 0.9294789 -0.58700943 -0.019425921 0.6541313
0.14278555 -0.011820279 0.4462341 0.40642023 1.0249792 -0.3349532 -0.3534794 -0.35830674
0.38010696 0.6486665 0.024870358 0.026526839 0.08599904 -0.34472275 -0.5948965 -0.5930429
1.4458967 0.5948337 -0.59203446 0.72931165 -0.21845518 -0.6023189 1.2095032 -0.5484508
1.2704656 -0.539257 0.37623233 -0.4329634 -0.5328174 -0.5330851 0.47754213 -0.53535455
0.17322734 -0.42817137 0.732553 0.10026098 -0.28200674 0.32988694 -0.023134109 -0.13654432
0.88633317 0.26955205 -0.20186943 0.4550891 0.20594193 -0.55725956 -0.05471367 0.7007977
0.43515715 -0.13994339 0.49027437 0.35397926 0.40822098 -0.01632301 -0.034431696 0.5553625
-0.9727239 1.104444 -0.80535364 0.9930429 0.39817032 -0.97722095 0.71159655 -0.37507808
0.100523405 -0.36383963 0.3329872 0.08453775 1.0244508 0.49018326 -0.0928462 0.663567
-0.5056691 0.3393306 -0.37431148 -0.07180202 0.2724582 1.3393667 -0.1925781 0.77120036
0.2884555 -0.39032415 -0.0946064 -0.23336434 0.7424973 0.13499382 -0.6248844 -0.34225535
-0.2026366 0.6272544 -0.019957436 0.76485926 0.9028209 0.01774723 0.52594477 -0.06440356
0.73337716 0.61966985 -0.56856775 0.34792155 -0.54958016 -0.54914933 0.06811416 -0.15588671
-0.36618158 0.2129371 -0.11730014 0.5014061 1.0266619 -0.42658904 0.3019721 0.6268213
0.30627546 0.17731833 1.126111 -0.33113796 0.55500036 0.23853503 0.29852518 -0.112780586
-0.3199297 -0.29882243 -0.20666331 0.5271369 -0.22154045 -0.21154916 0.64583707 -0.5255994
-0.4613663 -0.5418142 1.6777246 0.27965537 -0.28401604 0.49051476 -0.28575763 1.3893582
0.10598769 0.6702512 -0.08879873 -0.33874217 -0.35931596 -0.3592521 -0.30830467 0.03420771
00000000: c675 e7bc c74a a0bd 740e 61be 2581 75be
00000010: facf 74be 8e28 5dbe acd6 5cbe 55ce 6bbe
00000020: ac1e 683f 0d69 8d3f 0d79 13bf 934d 5a3f
00000030: 54f2 6d3f 4046 16bf 1c23 9fbc 2675 273f
00000040: 6036 123e d8a9 41bc cc78 e43e 5016 d03e
00000050: 8532 833f fc7e abbe 40fb b4be fb73 b7be
00000060: 619d c23e 020f 263f ecbc cb3c d04e d93c
00000070: 4420 b03d 807f b0be 234b 18bf a9d1 17bf
00000080: 2513 b93f 0547 183f 928f 17bf 2bb4 3a3f
00000090: b7b2 5fbe 9231 1abf 00d1 9a3f 4667 0cbf
000000a0: 9e9e a23f bf0c 0abf 86a1 c03e 61ad ddbe
000000b0: b966 08bf 4478 08bf 6780 f43e ff0c 09bf
000000c0: 8262 313e 4739 dbbe 9888 3b3f a155 cd3d
000000d0: 3063 90be f1e6 a83e be83 bdbc 46d2 0bbe
000000e0: bbe6 623f ba02 8a3e dcb6 4ebe 7001 e93e
000000f0: 71e2 523e 90a8 0ebf 711b 60bd 7a67 333f
00000100: ebcc de3e 524d 0fbe 3e05 fb3e c53c b53e
00000110: 5702 d13e d5b7 85bc 4008 0dbd 3d2c 0e3f
00000120: 6f04 79bf 6c5e 8d3f a82b 4ebf 0f38 7e3f
00000130: fbdc cb3e 272b 7abf 312b 363f 3c0a c0be
00000140: 37df cd3d 3049 babe 4c7d aa3e 2122 ad3d
00000150: 3421 833f 4df9 fa3e 2626 bebd 87df 293f
00000160: 8873 01bf bebc ad3e c1a5 bfbe f00c 93bd
00000170: a47f 8b3e 5e70 ab3f 3233 45be 636d 453f
00000180: 70b0 933e 91d8 c7be 00c1 c1bd 10f7 6ebe
00000190: 4e14 3e3f d23b 0a3e 6df8 1fbf 183c afbe
000001a0: f87f 4fbe bf93 203f c77d a3bc d1cd 433f
000001b0: 451f 673f a462 913c 51a4 063f 03e6 83bd
000001c0: 9bbe 3b3f afa2 1e3f a88d 11bf c622 b23e
000001d0: 49b1 0cbf 0d95 0cbf 707f 8b3d c4a0 1fbe
000001e0: 277c bbbe 2f0c 5a3e 0e3b f0bd 265c 003f
000001f0: a869 833f e169 dabe 169c 9a3e 5c77 203f
00000200: 23d0 9c3e f092 353e 6824 903f ea8a a9be
00000210: 8114 0e3f 8742 743e 4bd8 983e 82f9 e6bd
00000220: d3cd a3be 41ff 98be 8c9f 53be 72f2 063f
00000230: 80db 62be 58a0 58be 9455 253f af8d 06bf
00000240: 3438 ecbe 56b4 0abf aebf d63f fd2e 8f3e
00000250: 8d6a 91be c024 fb3e d34e 92be 7dd6 b13f
00000260: 1310 d93d 9595 2b3f 1cdc b5bd 9d6f adbe
00000270: 43f8 b7be e4ef b7be 1cda 9dbe 621d 0c3d

encoder.label_embedding.bias f4 [16]
0.21083935 0.5846107 0.32902727 0.58739585 0.52465266 0.5854373 0.5537373 0.96418965
0.5038119 0.38348004 0.6132093 0.54305416 0.6778463 0.31687862 0.5328302 0.33615726
00000000: 45e6 573e 0ca9 153f 4376 a83e 935f 163f
00000010: a34f 063f 38df 153f bac1 0d3f 22d5 763f
00000020: d1f9 003f 7f57 c43e 49fb 1c3f 9905 0b3f
00000030: 5687 2d3f ea3d a23e 8f67 083f ce1c ac3e

encoder.fc_hidden.weight f4 [128, 800]
-0.029124131 0.035348132 0.026499532 0.011309483 0.025131244 0.014683701 -0.027053177 0.010526104
0.0022491328 0.02134827 0.0065469737 -0.012037895 0.028400673 0.003899435 -0.005044013 -0.030714205
0.016839273 0.016207786 0.0021884667 0.02627296 -0.026342979 0.012576911 0.034168385 0.013794795
-0.007075036 0.025809433 0.009278073 -0.0064373203 -0.01688928 0.0023264429 0.02542236 -0.033589277
-0.00962401 0.027270416 0.027709464 0.030528463 -0.012240617 -0.010176298 0.01877184 -0.00021983797
0.024635265 0.020383978 -0.021207325 -0.009985908 -0.02693185 0.032902457 0.028729646 -0.013416291
0.003058618 -0.005643307 0.02442536 0.014112763 0.016946478 -0.015415653 -0.03277596 -0.0055966424
-0.020694416 0.031254075 -0.018539658 0.03461265 -0.011449592 0.033326685 -0.022232506 0.002199033
-0.034798965 -0.016704302 0.003124877 0.00052747625 0.008922699 0.026573775 -0.03329106 -0.020047678
-0.013551868 0.0020570264 0.024596205 0.029131161 0.0018549925 -0.010103068 0.020379338 0.014820801
0.0032233659 0.002908706 -0.0327372 -0.0011012551 0.007893987 0.009748735 0.012207835 -0.005835817
0.02515313 -0.019125335 0.029319061 -0.018371917 0.0047427556 0.0034990148 -0.010509932 0.0031758284
-0.02476835 -0.006107547 -0.00076678063 -0.044417076 0.023561241 -0.035395008 -0.03043729 0.014823434
-0.036515493 0.0033004084 0.0065843402 -0.0013414457 0.031478714 -0.026908563 0.022974523 -0.029161895
-0.031582486 -0.0108399 -0.021787304 0.026848841 0.012710318 0.006561738 -0.011029189 -0.04103611
0.02197905 -0.004526521 -0.011581671 -0.0034147885 -0.014046469 -0.016143553 0.009735925 -0.025341881
-0.03417591 -0.013880378 0.013307092 0.0070072273 0.017060056 0.026084378 0.008235109 -0.026874218
0.02344247 -0.030172411 0.03040623 0.0038188377 -0.033364173 0.026153078 0.02138296 -0.008706591
0.01568826 0.0007154738 0.022412106 0.014121542 -0.040643696 0.006307178 0.01858253 -0.041500162
-0.012751115 -0.020910034 0.0070127756 -0.0013551243 -0.030967267 0.008852018 -0.00051719724 -0.007447394
-0.006465518 -0.024739109 -0.037989356 0.032861784 0.022004403 -0.03501969 0.017846663 -0.0015694434
0.004747771 0.031868834 -0.019008698 -0.0035051429 -0.015069975 -0.043414537 0.026507543 -0.029639632
0.0010482527 -0.021851404 -0.03430932 0.016347203 -0.04152198 -0.007221673 -0.032274164 0.009317015
-0.016748367 0.020178787 -0.016488384 -0.015871262 -0.0036505552 -0.0069288407 -0.027935782 -0.02595593
0.033226144 0.038423292 -0.025387906 -0.018025007 -0.022847673 -0.0023479925 -0.00825653 0.00093197223
0.023822458 -0.04367635 0.0029276134 -0.003622801 -0.0034033763 -0.02907577 -0.034181572 0.018044984
-0.019242324 -0.035534967 0.0107529005 -0.025124783 -0.04153267 -0.028032396 -0.03721091 -0.011891047
-0.044289116 -0.031029675 0.0122806765 0.011382563 0.0067875353 0.037562206 0.01710954 -0.004769776
-0.03045314 -0.020071868 0.029126305 -0.028294642 -0.037751373 -0.0098725455 0.012074828 0.004585024
-0.022407383 -0.04311517 -0.0009309836 0.022771258 -0.039932985 0.008208735 0.016463177 -0.03949964
9.707248e-05 -0.028091384 -0.0071321786 -0.008589797 -0.012199981 -0.040005136 -0.04213718 0.025180336
-0.024882723 0.004831702 -0.035875123 0.03034154 -0.018449223 0.026977992 0.012642926 0.011690925
00000000: bb95 eebc 34c9 103d 8c15 d93c 694b 393c
00000010: 0ae0 cd3c e893 703c a09e ddbc ae75 2c3c
00000020: 3066 133b 91e2 ae3c ff87 d63b 973a 45bc
00000030: 87a8 e83c aa8d 7f3b 3f48 a5bb 5b9c fbbc
00000040: 84f2 893c 31c6 843c 616c 0f3b 643a d73c
00000050: 3bcd d7bc 630f 4e3c 26f4 0b3d 9003 623c
00000060: b4d5 e7bb 4e6e d33c 0f03 183c 28f0 d2bb
00000070: 635b 8abc 3c77 183b 8e42 d03c e994 09bd
00000080: 06ae 1dbc 3566 df3c f5fe e23c d416 fa3c
00000090: de8c 48bc 7dba 26bc 67c7 993c 4e84 66b9
000000a0: e5cf c93c 4dfc a63c fcba adbc ef9b 23bc
000000b0: 2fa0 dcbc bac4 063d 6f5a eb3c 01d0 5bbc
000000c0: 1873 483b 7eeb b8bb b117 c83c 3839 673c
000000d0: 57d3 8a3c ef91 7cbc 1640 06bd 0a64 b7bb
000000e0: 5687 a9bc 4604 003d 7be0 97bc fec5 0d3d
000000f0: 1297 3bbc 9081 083d f220 b6bc a71d 103b
00000100: 5c89 0ebd 76d7 88bc bdca 4c3b 5546 0a3a
00000110: 8330 123c 3fb1 d93c 355c 08bd 073b a4bc
00000120: a708 5ebc 2dcf 063b fb7d c93c 79a4 ee3c
00000130: 3823 f33a 5787 25bc 92f2 a63c f2d2 723c
00000140: 1b3f 533b fd9f 3e3b 7117 06bd fd57 90ba
00000150: c855 013c 29b9 1f3c 5f03 483c 623a bfbb
00000160: f00d ce3c bcac 9cbc 872e f03c b480 96bc
00000170: 1e69 9b3b ba4f 653b da31 2cbc 8f21 503b
00000180: ffe6 cabc d121 c8bb c701 49ba aeee 35bd
00000190: 8103 c13c 5bfa 10bd a057 f9bc fddd 723c
000001a0: 4591 15bd aa4b 583b 73c1 d73b 73d3 afba
000001b0: d3ef 003d 596f dcbc 1135 bc3c ede4 eebc
000001c0: a35c 01bd d699 31bc 4a7b b2bc 1af2 db3c
000001d0: f03e 503c d903 d73b c6b3 34bc 7b15 28bd
000001e0: 690d b43c 3653 94bb 0dc1 3dbc a5ca 5fbb
000001f0: 2923 66bc 7c3f 84bc 6e83 1f3c c799 cfbc
00000200: 0afc 0bbd 866a 63bc fd05 5a3c e29c e53b
00000210: 88c1 8b3c e8ae d53c 8dec 063c 5227 dcbc
00000220: 6c0a c03c 222c f7bc 7c16 f93c 7745 7a3b
00000230: dfa8 08bd fb3e d63c 512b af3c 17a6 0ebc
00000240: aa84 803c a28e 3b3a 9899 b73c 0a5e 673c
00000250: 017a 26bd 72ac ce3b 643a 983c 13fc 29bd
00000260: 0dea 50bc 854b abbc 6dcb e53b 6d9e b1ba
00000270: 11af fdbc 0e08 113c 8594 07ba 4509 f4bb
00000280: b2dc d3bb aca9 cabc ba9a 1bbd 149a 063d
00000290: 9442 b43c ce70 0fbd 2a33 923c c8b5 cdba
000002a0: 3193 9b3b e588 023d 21b8 9bbc 8ab6 65bb
000002b0: 0ee8 76bc 71d3 31bd 5926 d93c d0ce f2bc
000002c0: 8665 893a b701 b3bc ee87 0cbd 92ea 853c
000002d0: f412 2abd c9a3 ecbb ea31 04bd 65a6 183c
000002e0: df33 89bc fc4d a53c a612 87bc 7304 82bc
000002f0: 273e 6fbb 540b e3bb 95d9 e4bc 88a1 d4bc
00000300: 2318 083d be61 1d3d 4cfa cfbc 2ea9 93bc
00000310: 0b2b bbbc c7e0 19bb 6646 07bc 994f 743a
00000320: 5127 c33c f9e5 32bd 34dd 3f3b 846c 6dbb
00000330: 2e0b 5fbb 4f30 eebc fa01 0cbd 13d3 933c
00000340: 14a2 9dbc 1d8d 11bd ef2c 303c 7dd2 cdbc
00000350: 291e 2abd 32a4 e5bc 786a 18bd aad2 42bc
00000360: 8168 35bd f231 febc e434 493c ee7d 3a3c
00000370: f969 de3b d4da 193d 4e29 8c3c c84b 9cbb
00000380: dd78 f9bc c26d a4bc 4a9a ee3c 2aca e7bc
00000390: 2fa1 1abd 75c0 21bc 80d5 453c f83d 963b
000003a0: b08f b7bc 8899 30bd 400d 74ba ca8a ba3c
000003b0: c590 23bd ee7d 063c c9dd 863c 60ca 21bd
000003c0: 6493 cb38 e71f e6bc 0db5 e9bb 38bc 0cbc
000003d0: 6ee2 47bc 6ddc 23bd 0998 2cbd fe46 ce3c
000003e0: dad6 cbbc 4153 9e3b cbf1 12bd d28e f83c
000003f0: d322 97bc f300 dd3c 4624 4f3c 4b8b 3f3c

encoder.fc_hidden.bias f4 [128]
-0.044244245 0.18067572 0.01185779 0.008995502 0.09572247 -0.04397457 0.0672635 0.016495991
-0.015568405 -0.020871796 -0.0038700802 -0.010454582 -0.018690024 0.007057724 -0.043802023 0.15716255
0.042476643 0.19102778 -0.01125391 -0.028026769 0.2017875 0.23046254 -0.05793433 0.17467768
0.4776701 0.17794137 0.38423818 -0.028756827 -0.02021397 0.011643453 -0.04467569 -0.0111400485
-0.0130841425 0.016116425 -0.047166307 -0.052682385 -0.033160903 0.17032948 -0.025727555 -0.011985035
-0.016873538 0.19948903 -0.1252786 0.24195275 -0.016886523 0.088634714 -0.022289189 -0.02863909
0.03164641 -0.42851263 -0.043209102 0.12523425 -0.013408442 0.2853699 0.13081393 -0.01361993
0.037048843 -0.0401334 -0.01097238 -0.022142768 0.044102695 0.022339165 0.16024545 -0.016022278
0.018248001 -0.044829402 -0.032245014 -0.008413803 0.12775023 0.02201876 -0.024264924 -0.025616826
0.0027190861 0.15770654 -0.23376165 0.26062348 -0.03174685 0.30945832 0.022087209 -0.0046605724
0.10642047 -0.0100927325 -0.06468539 0.28276676 0.14034727 0.23404971 -0.012743179 -0.03914815
0.2464907 -0.122086026 0.014103301 0.22765376 0.12276124 0.011342912 -0.09174066 0.006065734
0.0011777044 -0.02892783 -0.025977634 -0.30026865 0.012637676 0.014081376 -0.032654133 -0.019429779
-0.03189244 -0.042253725 -0.043871615 -0.051235568 0.25724033 0.00760323 -0.044500522 0.10381715
0.0040605646 -0.010963352 0.026692672 -0.02261034 -0.07311102 -0.014905787 0.16958524 0.15376085
-0.00998498 0.0009819543 -0.031069476 -0.0073613035 -0.005579587 0.013981384 0.016022632 -0.037934367
00000000: 7439 35bd 0e03 393e 2d47 423c df61 133c
00000010: 240a c43d ae1e 34bd 72c1 893d 9a22 873c
00000020: a012 7fbc 54fb aabc 2ca1 7dbb b249 2bbc
00000030: d21b 99bc 7b44 e73b c069 33bd 38ef 203e
00000040: fdfb 2d3d c99c 433e 5262 38bc 6598 e5bc
00000050: 62a1 4e3e 5ffe 6b3e 8c4c 6dbd b5de 323e
00000060: 2d91 f43e 4336 363e deba c43e 7093 ebbc
00000070: c597 a5bc 2ec4 3e3c dbfd 36bd c084 36bc
00000080: df5e 56bc 9806 843c 7531 41bd 7cc9 57bd
00000090: bad3 07bd da6a 2e3e 98c2 d2bc e15c 44bc
000000a0: 603a 8abc da46 4c3e 0949 00be 76c2 773e
000000b0: 9b55 8abc 1e86 b53d d197 b6bc 869c eabc
000000c0: aa9f 013d 0266 dbbe 07fc 30bd 683d 003e
000000d0: 15af 5bbc 011c 923e 16f4 053e 2026 5fbc
000000e0: 87c0 173d ec62 24bd 7fc5 33bc c064 b5bc
000000f0: 07a5 343d a000 b73c 6217 243e 2741 83bc
00000100: d57c 953c 099f 37bd 5913 04bd 0cda 09bc
00000110: f5d0 023e b060 b43c 3cc7 c6bc 61da d1bc
00000120: b232 323b d37d 213e 375f 6fbe 7170 853e
00000130: fc08 02bd 5271 9e3e 3cf0 b43c b7b7 98bb
00000140: faf2 d93d fd5b 25bc c679 84bd cec6 903e
00000150: 32b7 0f3e baaa 6f3e c4c8 50bc cf59 20bd
00000160: 0f68 7c3e 3d08 fabd 8811 673c 111e 693e
00000170: 3f6a fb3d 9fd7 393c 87e2 bbbd 11c3 c63b
00000180: 345d 9a3a 0efa ecbc 0ccf d4bc d0bc 99be
00000190: 410e 4f3c 92b5 663c 57c0 05bd 332b 9fbc
000001a0: a6a1 02bd 3e12 2dbd b9b2 33bd 63dc 51bd
000001b0: 01b5 833e 8424 f93b 2e46 36bd 169e d43d
000001c0: 7c0e 853b a29f 33bc 97aa da3c 5239 b9bc
000001d0: 3bbb 95bd 6737 74bc c1a7 2d3e 7c73 1d3e
000001e0: 0b98 23bc ebb4 803a 6a85 febc 1737 f1bb
000001f0: f8d4 b6bb 2d12 653c e541 833c 1161 1bbd

encoder.fc_mu.weight f4 [3, 128]
0.059768543 -0.03915936 -0.031159656 0.059325553 0.0377103 0.005958509 0.1274025 0.04562772
0.02806932 0.07058529 0.067539364 0.061717328 -0.087303504 0.0730512 0.013755357 -0.2228285
-0.013713986 -0.13412608 -0.07840314 0.019506484 -0.029584818 -0.03214901 0.08012798 -0.17276616
0.027351098 0.02503361 -0.044563055 0.0025383201 0.07369892 0.016493944 -0.09283079 0.05507657
-0.028883912 0.04170642 -0.0320462 -0.042575695 -0.17000696 -1.6592776e-05 -0.04380605 0.05125746
0.066935554 -0.1476297 0.11665628 -0.057387654 0.07241559 -0.14559324 0.053158198 0.056294113
-0.038521435 -0.12508044 0.038919494 -0.047437586 -0.0044497373 -0.12320956 -0.030445447 -0.11033397
-0.018530007 -0.07149905 -0.007587734 0.0788467 -0.1002645 -0.04652854 0.14554091 -0.0034607693
-0.09631416 0.030034753 0.069336936 0.0034488149 0.03180336 0.018816393 -0.039047055 0.059168156
0.03871757 -0.12511165 -0.00052825635 -0.046425633 0.017995326 -0.04041249 -0.003884068 0.054772798
0.0793935 -0.047406904 0.0047915266 0.26854315 -0.021241805 0.11082354 -0.025899002 0.13553381
-0.02069336 0.13005298 0.04095818 -0.06497111 -0.063121445 -0.148596 -0.04062955 0.031201683
-0.016354157 -0.097062305 -0.06529375 0.07982121 -0.010921128 -0.04103736 0.06564435 0.013515506
0.04274457 -0.01787739 0.06401006 -0.01310273 -0.11234353 0.021911895 -0.040827036 -0.088806525
0.07244112 -0.034012772 -0.16203345 0.03418363 0.025468152 -0.033788387 -0.02960627 0.100279264
0.011632655 0.040102568 0.046681374 0.01852276 -0.028975183 0.005697344 0.05869063 0.121403165
-0.0050168927 -0.055781435 0.013139404 0.022745233 0.06774297 0.01346636 -0.010968084 -0.005119228
-0.057833612 -0.041508432 0.06442225 -0.058908787 0.023791272 0.044859704 -0.023616135 0.06556464
-0.14735527 -0.04349939 -0.064604044 -0.020822914 -0.16079852 0.072509326 0.004151216 -0.061534632
0.04026193 -0.05226747 -0.04179951 0.054867 -0.06878783 0.03946964 -0.075451255 0.100058466
0.12489353 -0.048621636 -0.0071486467 -0.03888037 -0.09908803 -0.03310348 0.011098117 0.043251332
-0.009009403 0.074965164 0.02486096 0.056328993 0.022114195 0.07836031 0.01159149 -0.03595031
0.06888804 0.04465672 0.07646931 0.037695587 0.0029838928 0.022531986 -0.080387354 -0.10536295
0.027950998 -0.020114804 -0.009419855 -0.023334965 -0.0070474693 -0.075833805 0.04490179 -0.005170271
-0.037691884 -0.022960074 0.027641984 0.0017663345 -0.02046879 -0.048477657 0.008414773 -0.021582792
-0.08087375 0.06682757 -0.007949029 0.097691186 -0.026784772 0.034251597 0.06253687 -0.012425195
-0.028011186 -0.07041767 -0.13933624 0.016504237 -0.105167374 0.010830308 0.14754128 -0.06708121
-0.018727213 0.07569237 -0.036160927 0.024865797 -0.03635107 -0.023042366 0.06658254 0.051280715
-0.15880185 0.055399317 -0.018037187 0.064364955 0.036730353 -0.04674084 -0.041957572 -0.058820758
-0.071073376 0.011090304 0.05021978 0.021998765 -0.033043556 0.040655818 0.12817426 -0.024613712
0.13024442 -0.055158567 0.010155697 -0.055000816 -0.00031583628 0.02939144 0.025180532 -0.0089281285
0.0017296612 0.06369629 -0.03823851 0.032228272 0.065610744 -0.022274919 -0.0045017805 0.27278757
00000000: dccf 743d 9165 20bd 8942 ffbc 5aff 723d
00000010: 1e76 1a3d 993f c33b cd75 023e 22e4 3a3d
00000020: a1f1 e53c 058f 903d 1452 8a3d 4fcb 7c3d
00000030: 2ecc b2bd de9b 953d 265e 613c 282d 64be
00000040: a0b0 60bc 5958 09be d391 a0bd 10cc 9f3c
00000050: dc5b f2bc aeae 03bd 231a a43d 9de9 30be
00000060: 690f e03c 4913 cd3c c087 36bd f259 263b
00000070: 76ef 963d 4f1e 873c 121e bebd f897 613d
00000080: f49d ecbc 5ad4 2a3d e042 03bd da63 2ebd
00000090: 4e16 2ebe b730 8bb7 f96d 33bd 58f3 513d
000000a0: 8215 893d 3d2c 17be 7de9 ee3d 510f 6bbd
000000b0: a04e 943d 6516 15be 69bc 593d a894 663d
000000c0: a7c8 1dbd 1615 00be 0c6a 1f3d ea4d 42bd
000000d0: 1acf 91bb 4b55 fcbd bb68 f9bc c7f6 e1bd
000000e0: 3ecc 97bc 186e 92bd 87a2 f8bb 617a a13d
000000f0: 7957 cdbd b694 3ebd ad08 153e 13ce 62bb
00000100: 5c40 c5bd 710b f63c 8600 8e3d 8305 623b
00000110: 3d44 023d d624 9a3c ceef 1fbd 4f5a 723d
00000120: 5196 1e3d 451d 00be af7a 0aba ce28 3ebd
00000130: ef6a 933c 9187 25bd d98b 7ebb 7159 603d
00000140: 0f99 a23d be2d 42bd 3d02 9d3b 7d7e 893e
00000150: 4b03 aebc 74f7 e23d 252a d4bc 60c9 0a3e
00000160: 1f85 a9bc 9c2c 053e c4c3 273d 930f 85bd
00000170: d145 81bd 8d29 18be 2c6b 26bd ac9a ff3c
00000180: 27f9 85bc 9ac8 c6bd bbb8 85bd 4d79 a33d
00000190: 88ee 32bc ca16 28bd 8c70 863d 2470 5d3c
000001a0: ee14 2f3d 9b73 92bc b517 833d d5ac 56bc
000001b0: 5d14 e6bd 9380 b33c 403a 27bd 32e0 b5bd
000001c0: 035c 943d fa50 0bbd 19ec 25be 2204 0c3d
000001d0: 96a2 d03c b165 0abd d988 f2bc 375f cd3d
000001e0: e496 3e3c 9742 243d f834 3f3d 0bbd 973c
000001f0: 5d5d edbc c9b0 ba3b 9665 703d 39a2 f83d
00000200: bf64 a4bb 137b 64bd a846 573c 3654 ba3c
00000210: d4bc 8a3d 02a2 5c3c 7bb3 33bc 32bf a7bb
00000220: f0e2 6cbd bf04 2abd d0ef 833d 574a 71bd
00000230: eae5 c23c cfbe 373d a076 c1bc c146 863d
00000240: 4de4 16be 6b2c 32bd 204f 84bd d194 aabc
00000250: 5ea8 24be c57f 943d ec06 883b bd0b 7cbd
00000260: b2e9 243d 6a16 56bd f735 2bbd 38bc 603d
00000270: a2e0 8cbd ebaa 213d 3086 9abd 74eb cc3d
00000280: 2ec8 ff3d 7b27 47bd 323f eabb 0641 1fbd
00000290: aaee cabd 8497 07bd e0d4 353c 4f28 313d
000002a0: 2d9c 13bc 5687 993d 36a9 cb3c 3bb9 663d
000002b0: d428 b53c 5f7b a03d 3cea 3d3c a240 13bd
000002c0: 2c15 8d3d f7e9 363d f19b 9c3d b066 1a3d
000002d0: 6a8d 433b 0095 b83c 20a2 a4bd 88c8 d7bd
000002e0: 7ef9 e43c cdc7 a4bc bc55 1abc f828 bfbc
000002f0: 75ee e6bb c14e 9bbd f0ea 373d 606b a9bb
00000300: ce62 1abd c416 bcbc 7171 e23c 5a84 e73a
00000310: 2aae a7bc 8290 46bd 1ede 093c 65ce b0bc
00000320: 23a1 a5bd e5dc 883d a53c 02bc 5112 c83d
00000330: bd6b dbbc 674b 0c3d 5513 803d 0c93 4bbc
00000340: b777 e5bc 2437 90bd 29ae 0ebe e533 873c
00000350: fe61 d7bd 9b71 313c 1015 173e e061 89bd
00000360: d069 99bc 9a04 9b3d 7b1d 14bd 5bb3 cb3c
00000370: dce4 14bd 58c3 bcbc 6d5c 883d ba0b 523d
00000380: f49c 22be 65ea 623d b9c2 93bc c6d1 833d
00000390: 9172 163d 5373 3fbd b4db 2bbd 09ee 70bd
000003a0: eb8e 91bd 1bb4 353c 42b3 4d3d c136 b43c
000003b0: ae58 07bd b786 263d 1d40 033e b2a2 c9bc
000003c0: cb5e 053e f3ed 61bd 1564 263c 8948 61bd
000003d0: d496 a5b9 51c6 f03c 6747 ce3c 4947 12bc
000003e0: cdb5 e23a 3373 823d fc9f 1cbd cb01 043d
000003f0: ed5e 863d e479 b6bc ac83 93bb d0aa 8b3e

encoder.fc_mu.bias f4 [3]
0.02906309 0.014956217 0.05352177
00000000: b815 ee3c ec0a 753c a539 5b3d

encoder.fc_logvar.weight f4 [3, 128]
-0.034046106 -0.06777861 -0.016979408 -0.08243616 -0.008048474 -0.017612103 0.16331916 0.06975244
-0.0825235 0.027541688 -0.06687641 -0.04023466 -0.062413562 -0.05595373 -0.061642714 0.06879069
0.024793722 0.0687138 0.0014450429 -0.049066763 -0.05694483 -0.020138491 -0.000887199 0.105581895
-0.06727628 -0.04085899 -0.04266971 -0.046622798 -0.018203158 -0.018583914 -0.04106585 0.008664942
-0.019579714 -0.05871051 0.076992005 0.026139306 -0.0020799001 -0.001809259 -0.033614103 -0.030609163
0.07412537 0.0389423 0.01782211 0.020347081 0.090089805 0.035428874 -0.000841414 -0.02731158
0.022014515 -0.024192188 0.0029743942 -0.07904853 0.0584675 0.021719582 -0.017174417 0.0019314172
-0.095997885 -0.07387809 -0.03450299 -0.0788935 0.05476014 0.025896179 0.0115720965 0.0038980693
-0.074625805 -0.0069489432 0.07033927 -0.07505533 0.044200152 -0.055982396 -0.0658491 -0.023142371
-0.012050649 -0.007530539 0.0430251 -0.04920815 -0.067598164 -0.113625 -0.012954516 0.07990366
-0.0077862334 0.07397637 0.013864638 -0.11012919 -0.014356036 -0.08950883 -0.036117896 0.012490129
-0.20407215 -0.013943465 -0.053163722 -0.13579023 -0.0064232918 0.04717711 -0.0067821145 -0.0049763555
-0.010578383 0.052866105 -0.033883397 0.050310366 -0.024890352 0.083101764 -0.015862875 -0.011656739
0.043166805 0.0019552177 -0.0034171543 -0.0065924022 0.0051374445 -0.039351948 -0.007091892 -0.025706751
0.011629732 -0.038225338 0.115596525 0.05056771 0.01846263 0.021635491 -0.0018093887 -0.09515864
-0.13591497 -0.003344099 -0.026658436 0.084330454 -0.018877082 0.09527321 0.079449676 0.104609266
-0.0553489 -0.059941214 0.08622884 -0.016475929 -0.017493466 -0.009311525 0.08034826 -0.057196658
-0.014135325 0.068307 -0.075258955 -0.030822115 0.020204728 -0.071461104 -0.06572585 0.023770569
0.057895925 -0.007889605 0.031129466 -0.11752137 0.04825035 0.0003304548 0.14367329 -0.048917074
-0.12553468 -0.090371884 -0.11496222 0.009034253 -0.025138035 -0.07735277 -0.05105421 -0.009188914
-0.00055228686 -0.026375785 -0.015392703 -0.048528828 -0.039979294 0.007998559 -0.030014731 -0.0618186
-0.0055561597 0.020179214 -0.0033062324 0.041911084 -0.08791591 0.052950867 -0.044946123 0.019884601
0.065862626 -0.01451964 -0.073383875 -0.0630438 0.09617218 0.017774327 -0.016449124 0.047720525
-0.060182597 0.027773866 0.0246421 0.060004804 0.020835087 -0.053508345 -0.07322838 0.054190777
0.0027875542 0.055852573 0.06351126 -0.0061306246 0.026250694 -0.070284635 0.07970895 0.028737022
-0.033578075 0.07025087 0.04160339 -0.01338773 -0.0155223105 -0.13814011 0.020029321 -0.068598576
-0.055344127 0.051641416 0.03361908 -0.16290861 0.10020806 -0.17171098 -0.003065534 0.035884827
-0.2620138 -0.039744616 -0.020035664 -0.17121562 -0.0011573554 -0.024459193 0.084210664 -0.023031747
0.07224379 -0.023649912 -0.054180175 0.047789816 -0.07419487 0.022482594 0.0032487202 0.029824845
0.034497127 0.022613596 0.0167241 0.025013953 -0.025946418 -0.06227493 0.02017561 -0.02204174
0.059329174 -0.03743532 0.07429488 0.005179127 -0.035812385 0.031216156 -0.033609454 -0.11837041
-0.07860824 0.057804655 -0.006965344 0.061405 -0.03963227 0.09552706 0.07653212 0.055997487
00000000: ee73 0bbd 83cf 8abd 6618 8bbc 4ad4 a8bd
00000010: bfdd 03bc 4247 90bc 233d 273e 5eda 8e3d
00000020: 1502 a9bd 1b9f e13c 80f6 88bd 19cd 24bd
00000030: 5da5 7fbd bd2f 65bd 127d 7cbd 22e2 8c3d
00000040: 341c cb3c d2b9 8c3d 9867 bd3a 3bfa 48bd
00000050: fb3e 69bd 7af9 a4bc eb92 68ba 523b d83d
00000060: 25c8 89bd c25b 27bd 6fc6 2ebd 8cf7 3ebd
00000070: ca1e 95bc 4b3d 98bc aa34 28bd 67f7 0d3c
00000080: a365 a0bc 6f7a 70bd fcad 9d3d 1922 d63c
00000090: ef4e 08bb a824 edba f1ae 09bd 11c0 fabc
000000a0: 0bcf 973d f681 1f3d acff 913c ecae a63c
000000b0: 0181 b83d de1d 113d 5692 5cba 89bc dfbc
000000c0: c957 b43c b22e c6bc 0eee 423b 32e4 a1bd
000000d0: 9e7b 6f3d 44ed b13c 5db1 8cbc 9b27 fd3a
000000e0: 8a9a c4bd 654d 97bd 0253 0dbd ea92 a1bd
000000f0: 2b4c 603d 3924 d43c e498 3d3c c076 7f3b
00000100: 6ad5 98bd f6b3 e3bb 090e 903d 9cb6 99bd
00000110: 380b 353d cc4d 65bd e5db 86bd 1295 bdbc
00000120: 1670 45bc bdc2 f6bb 163b 303d 7c8e 49bd
00000130: e870 8abd 39b4 e8bd 2e3f 54bc 88a4 a33d
00000140: a923 ffbb ec80 973d 8228 633c 6a8b e1bd
00000150: 9435 6bbc 6850 b7bd 5cf0 13bd 66a3 4c3c
00000160: 4af8 50be 2273 64bc 34c2 59bd 980c 0bbe
00000170: 7a7a d2bb c93c 413d 803c debb b210 a3bb
00000180: f450 2dbc 218a 583d 51c9 0abd 3e12 4e3d
00000190: dae6 cbbc 4231 aa3d dcf2 81bc e8fb 3ebc
000001a0: adcf 303d 1c23 003b 56f2 5fbb 1405 d8bb
000001b0: 0258 a83b 822f 21bd 1a63 e8bb f796 d2bc
000001c0: a28a 3e3c 2c92 1cbd dfbd ec3d 1620 4f3d
000001d0: f13e 973c ea3c b13c 0329 edba 88e2 c2bd
000001e0: 4b2d 0bbe ac28 5bbb cb62 dabc 72b5 ac3d
000001f0: 1ca4 9abc 9a1e c33d 83b6 a23d 623d d63d
00000200: 87b5 62bd eb84 75bd bf98 b03d 87f8 86bc
00000210: 754e 8fbc 5e8f 18bc a18d a43d 0b47 6abd
00000220: da97 67bc 8ae4 8b3d 5e21 9abd a97e fcbc
00000230: 6384 a53c 335a 92bd 469b 86bd 7fba c23c
00000240: 4724 6d3d 6743 01bc 3903 ff3c 0baf f0bd
00000250: 29a2 453d e440 ad39 171f 133e 455d 48bd
00000260: 2a8c 00be e514 b9bd 5071 ebbd 6704 143c
00000270: 48ee cdbc 216b 9ebd 381e 51bd 198d 16bc
00000280: 58c7 10ba 0812 d8bc ad31 7cbc 2ac6 46bd
00000290: 54c1 23bd 630c 033c 74e1 f5bc 8035 7dbd
000002a0: 7210 b6bb e14e a53c 60ad 58bb f5aa 2b3d
000002b0: 420d b4bd 02e3 583d 6d19 38bd 08e5 a23c
000002c0: fce2 863d c9e3 6dbc 494a 96bd 1c1d 81bd
000002d0: ebf5 c43d 779b 913c 50c0 86bc 9976 433d
000002e0: 0782 76bd 0586 e33c 3bde c93c 99c7 753d
000002f0: 58ae aa3c 912b 5bbd c3f8 95bd 26f7 5d3d
00000300: 66af 363b abc5 643d 3112 823d 68e3 c8bb
00000310: b20b d73c 64f1 8fbd 723e a33d e769 eb3c
00000320: 2a89 09bd b0df 8f3d 5168 2a3d 3658 5bbc
00000330: 4a51 7ebc 9a74 0dbe 8814 a43c 697d 8cbd
00000340: 86b0 62bd f385 533d 29b4 093d 84d1 26be
00000350: e239 cd3d 01d5 2fbe 20e7 48bb f8fb 123d
00000360: ac26 86be 40cb 22bd d521 a4bc 2653 2fbe
00000370: 67b2 97ba a55e c8bc a476 ac3d 13ad bcbc
00000380: 8df4 933d 76bd c1bc 08ec 5dbd 41bf 433d
00000390: 7bf3 97bd 6b2d b83c 7be8 543b 3c53 f43c
000003a0: dc4c 0d3d 2640 b93c fb00 893c 10ea cc3c
000003b0: 958d d4bc ff13 7fbd 5247 a53c e190 b4bc
000003c0: 2603 733d c755 19bd ea27 983d abb5 a93b
000003d0: 02b0 12bd 06b9 ff3c 11aa 09bd 2f6c f2bd
000003e0: 5bfd a0bd 93c4 6c3d 8a3d e4bb cf83 7b3d
000003f0: 7255 22bd b1a3 c33d dfbc 9c3d 9f5d 653d

encoder.fc_logvar.bias f4 [3]
-0.49034962 -0.56314987 -0.45447648
00000000: 1b0f fbbe 972a 10bf 24b1 e8be

decoder.label_embedding.weight f4 [16, 10]
-0.5943672 -0.12865739 -0.602032 -0.61170113 0.2619189 -0.03714997 0.1819879 1.0980282
0.89172596 0.48479003 -0.5059322 1.061207 0.09229636 0.83494616 -0.72861516 1.4005336
0.2525946 -0.71017927 0.3590101 -0.7270765 -0.28303078 -0.1270223 0.15574321 -0.031276345
-0.21398032 -0.16813193 -0.01214207 0.045275006 0.16384806 0.04467479 0.70139164 -0.6965378
-0.50967073 -0.7007906 0.85168606 0.6227203 0.19000441 -0.71338975 0.539898 0.9730713
0.6123525 -0.6149309 0.0756494 1.3992015 -0.53811234 0.14396523 -0.5982843 -0.1765978
0.63666356 0.4012832 0.016395196 -0.5360181 -0.52967507 0.7958129 0.9896937 -0.11824859
0.5727155 0.9374908 -0.5160345 0.42992452 -0.47020343 -0.04915426 1.5294682 -0.41919616
-0.23878297 -0.41150174 -0.48021877 -0.03732477 0.61160946 -0.17512123 -0.5331148 1.5203983
0.11273749 -0.47229385 1.2359117 -0.23879603 -0.53313667 0.8753656 -0.5632794 0.5024302
-0.08567445 1.815736 -0.55599695 -0.20532334 -0.54277605 -0.5514189 0.9374269 0.14598706
0.38954997 0.42227393 0.5362733 1.0571266 0.3620339 -0.0927358 0.4906472 -0.25980157
0.63269323 -0.45860454 -0.039460007 -0.47712186 0.44649115 -0.21935172 0.7070026 -0.57798225
-0.5744226 0.61696446 0.17476645 0.7811836 -0.5933917 0.3178259 -0.24283661 -0.04527028
-0.029503295 -0.113339715 -0.09941281 0.4968013 0.51990503 0.50943875 -0.23431826 1.2150797
0.85252815 -0.33989194 0.90144944 -0.23948976 -0.34850538 -0.2252468 1.5008321 -0.35859188
-0.24186236 -0.27790192 -0.2586825 0.17580722 0.2403702 -0.19666381 -0.107999675 0.17375773
-0.25032425 -0.025440656 0.17872868 -0.1419496 0.8596668 -0.5024594 -0.50035065 -0.39769933
-0.29382703 0.763428 -0.11534044 0.6281194 0.60780543 -0.5052405 1.1512918 1.3469931
-0.39424503 -0.3956135 -0.40536016 -0.39174643 -0.3944568 0.5004035 -0.38835335 0.10486556
00000000: 7328 18bf c3be 03be c51e 1abf 7298 1cbf
00000010: 3c1a 863e 912a 18bd 095b 3a3e 308c 8c3f
00000020: 2748 643f 6636 f83e c684 01bf a2d5 873f
00000030: e005 bd3d 08bf 553f 8686 3abf af44 b33f
00000040: 1454 813e 4fce 35bf 2cd0 b73e af21 3abf
00000050: 69e9 90be 2212 02be 267b 1f3e a01b 00bd
00000060: a81d 5bbe c72a 2cbe 88ef 46bc 4972 393d
00000070: c9c7 273e eafc 363d 678e 333f 4d50 32bf
00000080: c879 02bf 0367 33bf 1908 5a3f 996a 1f3f
00000090: 8490 423e b6a0 36bf c136 0a3f 331b 793f
000000a0: 22c3 1c3f 1d6c 1dbf 13ee 9a3d 0919 b33f
000000b0: bbc1 09bf 9f6b 133e 2929 19bf 0ed6 34be
000000c0: 62fc 223f fe74 cd3e 384f 863c 7b38 09bf
000000d0: c998 07bf 65ba 4b3f 915c 7d3f 512c f2bd
000000e0: 7c9d 123f 66ff 6f3f d61a 04bf 111f dc3e
000000f0: 81be f0be fa55 49bd 9dc5 c33f e1a0 d6be
00000100: 8683 74be 5bb0 d2be 3cdf f5be dce1 18bd
00000110: 7092 1c3f fb52 33be 367a 08bf 699c c23f
00000120: eae2 e63d 80d0 f1be 5b32 9e3f f286 74be
00000130: a57b 08bf f617 603f 1433 10bf 449f 003f
00000140: 1676 afbd 0a6a e83f d155 0ebf 4840 52be
00000150: 5ff3 0abf ca29 0dbf 36fb 6f3f a27d 153e
00000160: 1873 c73e 4a34 d83e 3549 093f ed4f 873f
00000170: 825c b93e 44ec bdbd 1c36 fb3e b604 85be
00000180: 2ff8 213f 37ce eabe d1a0 21bd 5149 f4be
00000190: 7d9a e43e bd9d 60be 1ffe 343f a5f6 13bf
000001a0: 5c0d 13bf 62f1 1d3f faf5 323e a6fb 473f
000001b0: 85e8 17bf 14ba a23e 29aa 78be 546d 39bd
000001c0: e5b0 f1bc a71e e8bd f198 cbbd bd5c fe3e
000001d0: 7f18 053f 946a 023f 20f1 6fbe bb87 9b3f
000001e0: 493f 5a3f 5106 aebe 64c5 663f ce3c 75be
000001f0: 4c6f b2be 19a7 66be 441b c03f 5b99 b7be
00000200: c4aa 77be 2949 8ebe 0872 84be cf06 343e
00000210: 9b23 763e 3d62 49be ef2e ddbd 8ced 313e
00000220: 802a 80be ec68 d0bc a704 373e 3c5b 11be
00000230: 2013 5c3f 2ea1 00bf fb16 00bf 3f9f cbbe
00000240: 7f70 96be 0470 433f 9c37 ecbd 6fcc 203f
00000250: 2399 1b3f 7157 01bf 885d 933f 456a ac3f
00000260: 7cda c9be da8d cabe 5e8b cfbe fd92 c8be
00000270: 3ef6 c9be 721a 003f 40d6 c6be c1c3 d63d

decoder.label_embedding.bias f4 [16]
0.58393186 0.7084204 -0.268309 0.6926054 0.59001267 0.49837467 0.46663746 0.5267666
0.53619635 0.44661218 0.5669546 0.20951879 0.33188838 -0.2637823 0.4921818 0.38493434
00000000: 8f7c 153f 0a5b 353f cc5f 89be 964e 313f
00000010: 120b 173f f72a ff3e 1beb ee3e 2dda 063f
00000020: 2a44 093f 5aaa e43e f023 113f 188c 563e
00000030: 46ed a93e 790e 87be 41ff fb3e 1d16 c53e

decoder.fc_hidden.weight f4 [128, 19]
0.4214459 -1.1189857 0.02973248 -0.09566788 0.1942591 -0.021947023 0.06849851 -0.7660291
0.40377748 -0.17867225 0.5413368 -0.39616922 0.558236 -0.14621454 -0.08037296 0.76771754
-0.10750102 -0.24183258 -0.41344044 -0.47963148 0.7290476 -0.68621117 0.54362243 -0.49716038
0.17087914 0.40548477 -0.2807546 0.059093747 -0.31402764 0.21425165 0.8859429 -0.08434042
-0.94588405 -0.2241486 -0.5836797 -0.04586902 -0.27005208 0.51135784 0.066183746 -1.7067993
-0.2925814 0.10848718 -0.5501355 0.0035164957 0.19595145 0.31145698 0.45295182 -1.2383404
-0.10894798 -0.66825724 -0.595352 0.07143731 0.17213042 -0.23913333 -0.06934097 0.72184503
0.35593173 -0.5126782 -0.09225716 -0.35533264 -0.078918226 0.3011475 0.031279884 0.08871629
0.1743133 -0.024550328 0.33228633 0.5238499 0.07874343 0.24170123 0.19630584 0.44465917
-0.7459119 -0.09352983 -0.49535367 -0.38146183 -0.458475 0.16653644 0.4987742 0.27521944
-0.028260259 -0.062092524 0.35173106 -0.19249547 0.37593332 -0.9559619 0.42332083 0.1333985
-0.027538633 0.35817736 0.37053108 -0.30292204 0.16673172 0.52020085 0.3113657 -0.18608283
0.13686056 -0.114780396 0.3288861 0.2840559 0.04860105 -0.09768105 -0.054392554 0.11767478
0.09944336 -0.17888452 0.014660457 0.08033623 -0.048681464 0.23643269 0.21083336 -0.05189416
-0.122783594 0.050106086 -0.47305715 0.70784116 -0.6762536 -0.26669654 -0.7638772 -0.124737345
-0.20120054 -0.20660879 -0.22463398 0.7133608 0.66071516 0.03511861 -0.015307246 0.20662881
-0.19614784 -0.24113382 -0.14641835 -0.14381015 0.72335523 -0.8856228 0.47407725 -0.36387855
-0.093249924 0.40053442 -0.039083283 -0.059616342 0.12728375 0.49916118 0.034971505 0.17694917
-0.1882365 -0.183004 0.30533415 0.3415616 0.25522396 -0.18744056 -0.4691738 -0.32660532
-0.8972853 -0.29954654 -0.8466158 0.06882925 -0.607095 0.15924597 -0.5600462 -1.032352
-0.023913315 0.04047895 0.80758566 0.51842374 0.24555466 -0.31936175 -0.41008538 -2.3465874
0.14669329 -0.29864326 0.67400306 -0.4438319 -1.1301483 -0.29008466 0.096634045 0.3279907
-0.059825085 -0.11182976 0.15827507 0.32396173 -0.40995187 0.28851858 0.50688285 0.20904568
-0.050498333 0.079172246 -0.2628463 0.19986627 0.31915802 0.06275047 -0.006873433 -0.10618463
0.0016393549 0.09227302 -0.25017673 -0.1473013 -0.35403872 -0.07984743 0.109401815 0.15285884
0.13936174 0.29699522 0.044156574 0.24112684 -0.10063441 0.018945985 -0.17935042 0.51002103
0.17030725 -0.11568464 -1.7274936 -0.23137297 -0.3348908 0.11243745 0.16640946 -0.3251647
-0.7331607 0.15858847 -0.43514678 -0.16462937 0.5577527 -0.00924578 0.38746706 0.28927442
0.6371617 0.060893346 -0.1153282 0.14602001 -0.8107173 0.05742726 0.17686315 0.58520275
-0.66543204 -0.20730251 0.059671156 -0.43195936 -0.28439748 0.6396713 0.5037595 0.62915087
0.032472312 -0.0289599 0.07130662 -0.4108835 -0.037435044 -0.54189044 0.14605838 0.04002155
0.0011795289 -0.24745181 -0.024596713 0.33044016 -0.14913808 -0.04828745 -0.12925112 0.08975761
00000000: c2c7 d73e ec3a 8fbf 8891 f33c 85ed c3bd
00000010: dceb 463e 3eca b3bc f248 8c3d 7c1a 44bf
00000020: ecbb ce3e dcf5 36be 0c95 0a3f b1d6 cabe
00000030: 8ee8 0e3f 44b9 15be 949a a4bd 2389 443f
00000040: 7f29 dcbd f6a2 77be 77ae d3be 4292 f5be
00000050: dda2 3a3f 89ab 2fbf d72a 0b3f ce8b febe
00000060: f1fa 2e3e b39b cf3e 11bf 8fbe 490c 723d
00000070: 3bc8 a0be c964 5b3e 27cd 623f acba acbd
00000080: 7525 72bf 3687 65be 086c 15bf 27e1 3bbd
00000090: 4444 8abe 59e8 023f 588b 873d 6678 dabf
000000a0: 3bcd 95be 872e de3d aed5 0cbf 0275 663b
000000b0: 7fa7 483e 4a77 9f3e 4de9 e73e f081 9ebf
000000c0: 1e20 dfbd e812 2bbf fd68 18bf b94d 923d
000000d0: f542 303e 5edf 74be a302 8ebd d6ca 383f
000000e0: af3c b63e e13e 03bf 52f1 bcbd 29ee b5be
000000f0: e19f a1bd 0130 9a3e 561f 003d e3b0 b53d
00000100: 307f 323e c51d c9bc 6f21 aa3e 071b 063f
00000110: 3c44 a13d 8780 773e 6604 493e 5eaa e33e
00000120: 15f4 3ebf 918c bfbd ff9e fdbe f74e c3be
00000130: 3cbd eabe 8788 2a3e 555f ff3e 90e9 8c3e
00000140: 0f82 e7bc bb54 7ebd 1816 b43e 881d 45be
00000150: 557a c03e ebb9 74bf 82bd d83e 9e99 083e
00000160: b398 e1bc 0663 b73e 40b6 bd3e 9918 9bbe
00000170: b8bb 2a3e e22b 053f 536b 9f3e 7f8c 3ebe
00000180: 2d25 0c3e fc11 ebbd c263 a83e c66f 913e
00000190: e511 473d 010d c8bd baca 5ebd 7aff f03d
000001a0: f6a8 cb3d 812d 37be 6a32 703c 5287 a43d
000001b0: 3766 47bd 691b 723e b3e4 573e f98e 54bd
000001c0: f775 fbbd 0a3c 4d3d 8c34 f2be 1435 353f
000001d0: f51e 2dbf 738c 88be 758d 43bf 4b76 ffbd
000001e0: 8407 4ebe 4191 53be 7306 66be d09e 363f
000001f0: a124 293f 88d8 0f3d 3ecb 7abc 8196 533e
00000200: fbda 48be c9eb 76be b1ee 15be f842 13be
00000210: cf2d 393f 2db8 62bf 41ba f23e 4a4e babe
00000220: d1f9 bebd d912 cd3e cb15 20bd 4430 74bd
00000230: ac56 023e 0e92 ff3e 483e 0f3d 2a32 353e
00000240: 12c1 40be 6765 3bbe c254 9c3e 29e1 ae3e
00000250: b7ac 823e 6bf0 3fbe 8c37 f0be d038 a7be
00000260: 7db4 65bf 2a5e 99be d0bb 58bf 5af6 8c3d
00000270: 946a 1bbf 6011 233e 305f 0fbf 1c24 84bf
00000280: dbe5 c3bc 41cd 253d efbd 4e3f 6bb7 043f
00000290: ae72 7b3e 6283 a3be b6f6 d1be 7d2e 16c0
000002a0: c436 163e c5e7 98be 778b 2c3f ef3d e3be
000002b0: b3a8 90bf fa85 94be 12e8 c53d 66ee a73e
000002c0: 260b 75bd 0007 e5bd dc12 223e 50de a53e
000002d0: 36e5 d1be b5b8 933e 13c3 013f 1210 563e
000002e0: 57d7 4ebd 0f25 a23d ca93 86be bea9 4c3e
000002f0: ae68 a33e 5283 803d 893a e1bb 5477 d9bd
00000300: 9fdf d63a a3f9 bc3d 2a17 80be 27d6 16be
00000310: 9044 b5be 0d87 a3bd 0f0e e03d 0787 1c3e
00000320: d8b4 0e3e c20f 983e 86dd 343d f4e9 763e
00000330: 6a19 cebd 9c34 9b3c a3a7 37be bd90 023f
00000340: 0665 2e3e 12ec ecbd 831e ddbf 09ed 6cbe
00000350: cf76 abbe 9b45 e63d 3e67 2a3e fd7b a6be
00000360: 6bb0 3bbf 0465 223e 8fcb debe 9a94 28be
00000370: e2c8 0e3f 9d7b 17bc 1562 c63e c71b 943e
00000380: 071d 233f 4d6b 793d 3131 ecbd 4586 153e
00000390: 2b8b 4fbf d938 6b3d 9d1b 353e d9cf 153f
000003a0: c159 2abf 1c47 54be be69 743d c729 ddbe
000003b0: 8c9c 91be 80c1 233f 62f6 003f 0810 213f
000003c0: b001 053d 503d edbc 3509 923d 525f d2be
000003d0: 7d55 19bd 55b9 0abf 5490 153e a3ed 233d
000003e0: 6c9a 9a3a 0264 7dbe 0c7f c9bc 742f a93e
000003f0: a7b7 18be 10c9 45bd 685a 04be d6d2 b73d

decoder.fc_hidden.bias f4 [128]
0.00670819 -0.30182582 -0.36371666 0.3074847 -0.07254671 -0.06448417 -0.071055405 0.35800081
-0.13066165 -0.0053071245 -0.011144652 -0.16850069 0.14828375 0.021067714 -0.08900608 0.02838337
-0.011013538 0.36823776 0.025180845 -0.05337445 0.26547307 0.24373889 0.29237834 0.01801377
0.42129517 -0.025358899 -0.024923619 0.11120625 -0.07926151 -0.09354627 -0.079183534 -0.22051607
-0.12948546 0.06721456 -0.16226959 0.10395581 -0.100315996 0.00017040847 -0.033575285 -0.0022067782
0.049131233 0.12329204 0.021380823 -0.11979081 0.24032283 -0.13444042 -0.052160535 0.10918827
0.26954922 -0.016543787 -0.24779117 0.093337245 -0.046119824 -0.006883333 0.0633957 0.11739513
-0.17789485 -0.25383797 0.14014316 0.08513841 0.0861091 0.008237354 0.1610207 -0.055773277
0.15567042 0.22060984 -0.306525 -0.11824294 -0.19312204 0.24902093 0.010486513 -0.058115494
-0.13959454 -0.17589061 0.2096381 0.1325026 -0.10403629 0.12280374 -0.15108664 -0.043919105
0.13289227 -0.034955654 -0.28852725 0.2507708 -0.003499081 0.16169395 -0.2117363 -0.20226353
0.14350711 -0.031751715 -0.1178333 -0.031128794 0.095806874 0.15218681 0.08370729 0.13457756
0.13943847 0.086478524 0.21832381 0.0670314 0.25831807 -0.027578158 -0.14678268 0.121577255
0.06531321 -0.12905467 0.06083269 0.027189313 0.10219012 0.15244964 0.112198316 -0.060674306
0.14695485 0.042612236 -0.09996187 0.071805894 0.011600567 0.089243725 -0.06589077 -0.046289157
-0.058982696 0.25777853 -0.18085493 -0.07474186 0.17847447 -0.37326798 -0.0313627 0.054086216
00000000: 60d0 db3b ea88 9abe 1239 babe a26e 9d3e
00000010: 5f93 94bd 4710 84bd 7f85 91bd e24b b73e
00000020: 2bcc 05be 63e7 adbb 0f98 36bc 728b 2cbe
00000030: b2d7 173e 3396 ac3c d248 b6bd 3e84 e83c
00000040: 2072 34bc a989 bc3e 0f48 ce3c 2b9f 5abd
00000050: 16ec 873e b096 793e 9db2 953e 9d91 933c
00000060: 00b4 d73e 77bd cfbc 9e2c ccbc 1ac0 e33d
00000070: dc53 a2bd 3095 bfbd fa2a a2bd f7ce 61be
00000080: d697 04be caa7 893d 002a 26be c9e6 d43d
00000090: 7972 cdbd adaf 3239 3d86 09bd 989f 10bb
000000a0: d53d 493d 8980 fc3d d626 af3c e254 f5bd
000000b0: 3017 763e c0aa 09be 49a6 55bd 1a9e df3d
000000c0: 5b02 8a3e d686 87bc f8bc 7dbe 9927 bf3d
000000d0: 24e8 3cbd 958d e1bb 9bd5 813d dc6c f03d
000000e0: 112a 36be 0df7 81be b081 0f3e 0c5d ae3d
000000f0: f859 b03d f8f5 063c 9ce2 243e 8572 64bd
00000100: 1168 1f3e 8ce7 613e d8f0 9cbe 5b29 f2bd
00000110: c9c1 45be 58ff 7e3e a0cf 2b3c 830a 6ebd
00000120: dff1 0ebe ab1c 34be 5fab 563e c3ae 073e
00000130: fa10 d5bd 8780 fb3d 75b6 1abe 85e4 33bd
00000140: e914 083e a92d 0fbd d8b9 93be 0865 803e
00000150: d650 65bb 1993 253e 67d1 58be 2c1e 4fbe
00000160: 87f3 123e 160e 02bd 9652 f1bd d001 ffbc
00000170: 6536 c43d dcd6 1b3e ba6e ab3d b3ce 093e
00000180: f5c8 0e3e a71b b13d 4790 5f3e c247 893d
00000190: 4442 843e 97eb e1bc 334e 16be 7ffd f83d
000001a0: efc2 853d e826 04be b32b 793d 1fbc de3c
000001b0: 0e49 d13d c21b 1c3e 3bc8 e53d 9f85 78bd
000001c0: 557b 163e 2b8a 2e3d cfb8 ccbd f80e 933d
000001d0: 4e10 3e3c 6ac5 b63d bdf1 86bd b399 3dbd
000001e0: d797 71bd 8cfb 833e 0932 39be 4312 99bd
000001f0: 03c2 363e fb1c bfbe 2d76 00bd 8289 5d3d

decoder.fc_out.weight f4 [784, 128]
-0.5038958 0.014431485 -0.19258879 -0.10131178 -0.21645167 0.02025092 0.024917226 -0.022704262
-0.07727686 -0.046080682 -0.097103655 -0.18032244 -0.042131443 -0.014737539 -0.17982414 -0.05726069
-0.1028963 -0.054366663 -0.062797636 -0.13403562 -0.17822058 -0.12194195 -0.14386147 -0.08659336
-0.14533463 -0.15451214 -0.53187966 -0.07959216 -0.048013322 -0.12680085 -0.07305426 -0.14836398
-0.04887968 -0.017715096 -0.3293897 -0.03411637 -0.08227255 0.012655268 -0.10610027 -0.09468
-0.016215993 -0.0875243 -0.6126411 -0.07449434 -0.084912136 -0.05362381 -0.07262222 -0.031641655
-0.19472596 -0.1548737 0.05173385 -0.06291512 -0.15402016 -0.07483256 -0.25454545 -0.08596476
-0.6161442 -0.21909346 -0.064536735 -0.102368295 -0.20802574 0.01575191 -0.115988195 -0.6144294
-0.12590349 -0.010664665 -0.17722458 -0.3509029 -0.071304776 -0.09184061 -0.17830364 -0.16013871
-0.035904586 -0.22552334 0.020204177 -0.0134781515 -0.04705932 -0.11278967 -0.1132487 -0.08758445
-0.13122672 -0.0122293765 -0.14738491 -0.13342795 -0.11602516 -0.051331732 -0.17444928 -0.2324764
-0.16292332 -0.025006529 -0.15170263 -0.32175893 -0.03389176 -0.022383181 -0.0080639245 -0.2927754
-0.0830493 0.0060068397 -0.109531105 0.0213779 -0.16207619 -0.11999803 -0.03519799 -0.106042765
-0.18281874 0.019099547 -0.0039435793 -0.045224633 -0.0054084123 -0.11221586 -0.48008764 -0.10174315
-0.015786637 -0.023498965 -0.12904595 -0.09029753 -0.048848636 -0.22072393 -0.06694588 -0.23540488
-0.16745098 0.023282519 -0.023811769 -0.025176376 -0.08019079 -0.1469176 -0.18121995 0.032873493
-0.53813225 -0.014286755 -0.078297056 -0.02596746 -0.060792007 -0.13932714 -0.09689231 -0.053353835
-0.06923378 -0.042832814 -0.12458611 -0.29582262 -0.10190411 -0.029456649 -0.05758086 -0.14160423
-0.058418147 -0.11778856 -0.020050576 -0.0852195 -0.10984195 -0.18257311 -0.13594487 -0.07358412
-0.1176618 -0.06879461 -0.5601236 -0.09327757 -0.13363726 -0.06278578 -0.0808781 -0.16681942
-0.058410563 -0.1260251 -0.36932865 -0.11723248 -0.07440195 -0.03074083 -0.14562663 -0.11949783
-0.027694423 0.01900253 -0.48296413 -0.073324546 -0.00946579 -0.035446215 -0.06674765 -0.045118045
-0.09390297 -0.050608687 -0.05704378 -0.16461247 -0.28587505 -0.08143614 -0.18808533 -0.024565699
-0.6281379 -0.32630134 -0.1260603 -0.054458693 -0.1573612 -0.09509167 -0.123244904 -0.6585671
-0.047893997 -0.018424816 -0.18726262 -0.2890508 -0.06721277 -0.056039102 -0.069627084 -0.06623516
-0.13301405 -0.27515537 -0.09724033 -0.11656312 -0.17723106 -0.20090017 -0.09014456 -0.11622567
-0.059205882 -0.0822522 -0.09498678 -0.14188127 -0.04546599 -0.106011875 -0.04842052 -0.29497558
-0.13065775 -0.018170448 -0.13786022 -0.21409088 -0.02838366 -0.022190234 0.019652838 -0.19310614
-0.051665217 -0.05727563 -0.07336678 -0.08555935 -0.091599695 -0.09758796 -0.0042711054 -0.09810903
-0.08258197 0.004553608 -0.10480661 -0.07054765 -0.09375975 -0.075181335 -0.5088026 -0.14660457
-0.06504851 -0.121682666 -0.20859553 -0.121014886 -0.2392396 -0.18287918 -0.08702398 -0.26833382
-0.06594817 -0.114031956 -0.05757589 -0.0693971 -0.020780321 -0.026865961 -0.15583168 0.03262312
00000000: 51ff 00bf 0972 6c3c ff35 45be 8d7c cfbd
00000010: 82a5 5dbe 42e5 a53c 361f cc3c 4afe b9bc
00000020: 5543 9ebd 19bf 3cbd 48de c6bd 72a6 38be
00000030: 0592 2cbd b875 71bc d223 38be 2f8a 6abd
00000040: 4cbb d2bd 94af 5ebd 0c9c 80bd a240 09be
00000050: 757f 36be b3bc f9bd 6c50 13be dc57 b1bd
00000060: 9ad2 14be 6e38 1ebe 4429 08bf 3701 a3bd
00000070: 9ea9 44bd 15d8 01be 799d 95bd baec 17be
00000080: 0f36 48bd 401f 91bc c4a5 a8be 9bbd 0bbd
00000090: 837e a8bd 0b58 4f3c 194b d9bd 96e7 c1bd
000000a0: 67d7 84bc f13f b3bd 0cd6 1cbf 7d90 98bd
000000b0: 6ae6 adbd a4a4 5bbd f5ba 94bd ae9a 01bd
000000c0: 3e66 47be 3697 1ebe e0e6 533d a4d9 80bd
000000d0: 76b7 1dbe d041 99bd c853 82be 4b0e b0bd
000000e0: a0bb 1dbf 095a 60be d62b 84bd 78a6 d1bd
000000f0: b304 55be 260a 813c 388b edbd 3f4b 1dbf
00000100: d8ec 00be d9ba 2ebc 5c7a 35be 8ba9 b3be
00000110: 3d08 92bd ee16 bcbd 3b95 36be 67fb 23be
00000120: b010 13bd 97ef 66be 3b83 a53c 77d3 5cbc
00000130: 46c1 40bd 45fe e6bd efee e7bd 7a5f b3bd
00000140: 4c60 06be b95d 48bc 12ec 16be 56a1 08be
00000150: 999e edbd 3941 52bd d5a2 32be 4b0e 6ebe
00000160: 5fd5 26be 7eda ccbc ef57 1bbe 96bd a4be
00000170: 16d2 0abd ef5c b7bc 8d1e 04bc a8e6 95be
00000180: c015 aabd 06d5 c43b d851 e0bd b520 af3c
00000190: 4df7 25be 87c1 f5bd c42b 10bd f32c d9bd
000001a0: d634 3bbe a776 9c3c 2439 81bb 773d 39bd
000001b0: 0d39 b1bb 6ed1 e5bd 0cce f5be b65e d0bd
000001c0: fa52 81bc e780 c0bc 9f24 04be e9ed b8bd
000001d0: 8215 48bd 7405 62be ec1a 89bd fa0d 71be
000001e0: 4578 2bbe fbba be3c e610 c3bc b03e cebc
000001f0: 123b a4bd 9171 16be b991 39be 5ba6 063d
00000200: 09c3 09bf fe12 6abc 355a a0bd b6b9 d4bc
00000210: 0a01 79bd c6ab 0ebe 7a6f c6bd 8d89 5abd
00000220: 71ca 8dbd 7671 2fbd 0127 ffbd 1076 97be
00000230: 1ab3 d0bd 124f f1bc e8d9 6bbd b300 11be
00000240: de47 6fbd 213b f1bd 1b41 a4bc 9087 aebd
00000250: d1f4 e0bd 72f4 3abe 2235 0bbe 45b3 96bd
00000260: abf8 f0bd 30e4 8cbd 4364 0fbf 5008 bfbd
00000270: 35d8 08be d595 80bd 6ba3 a5bd b6d2 2abe
00000280: ea3f 6fbd b90c 01be a518 bdbe 9517 f0bd
00000290: 0d60 98bd 31d4 fbbc 261f 15be 47bb f4bd
000002a0: 6adf e2bc 32ab 9b3c 1347 f7be 2e2b 96bd
000002b0: 6716 1bbc 0d30 11bd feb2 88bd b3cd 38bd
000002c0: 3350 c0bd 0e4b 4fbd bda6 69bd 2c90 28be
000002d0: 375e 92be fec7 a6bd 7199 40be 013e c9bc
000002e0: a5cd 20bf f810 a7be f415 01be 1410 5fbd
000002f0: 4b23 21be 6cbf c2bd d367 fcbd da97 28bf
00000300: 7f2c 44bd a4ef 96bc c6c1 3fbe 77fe 93be
00000310: d9a6 89bd 4289 65bd a598 8ebd 4da6 87bd
00000320: d634 08be 2ae1 8cbe f025 c7bd a5b8 eebd
00000330: 0f7c 35be c6b8 4dbe b69d b8bd b907 eebd
00000340: de81 72bd d773 a8bd 6e88 c2bd 5349 11be
00000350: 8c3a 3abd c11c d9bd 9854 46bd 0a07 97be
00000360: 25cb 05be 31da 94bc 3b2b 0dbe a43a 5bbe
00000370: d984 e8bc 4bc8 b5bc fdfe a03c 9ebd 45be
00000380: e89e 53bd da99 6abd 5341 96bd be39 afbd
00000390: 9f98 bbbd 32dc c7bd a1f4 8bbb 63ed c8bd
000003a0: bc20 a9bd 6f36 953b d9a4 d6bd 497b 90bd
000003b0: 1d05 c0bd acf8 99bd e340 02bf 821f 16be
000003c0: 2738 85bd c334 f9bd 119a 55be a7d6 f7bd
000003d0: 3afb 74be ae44 3bbe a139 b2bd 0d63 89be
000003e0: d60f 87bd 9689 e9bd b2d4 6bbd 1120 8ebd
000003f0: 7e3b aabc 0116 dcbc 5792 1fbe d29f 053d
